…
I0630 20:12:53.472362  2238 net.cpp:322] The NetState phase (0) differed from the phase (1) specified by a rule in layer mnist
I0630 20:12:53.472416  2238 net.cpp:322] The NetState phase (0) differed from the phase (1) specified by a rule in layer accuracy
I0630 20:12:53.472774  2238 net.cpp:58] Initializing net from parameters: 
name: "ORN"
state {
  phase: TRAIN
  level: 0
  stage: ""
}
layer {
  name: "mnist"
  type: "Data"
  top: "data"
  top: "label"
  include {
    phase: TRAIN
  }
  transform_param {
    scale: 0.00390625
  }
  data_param {
    source: "dataset/mnist_rot_train_lmdb"
    batch_size: 128
    backend: LMDB
  }
}
layer {
  name: "Extend"
  type: "Extend"
  bottom: "data"
  top: "Extend"
  orn_param {
    orientations: 8
  }
}
layer {
  name: "ORConv1"
  type: "ORNConvolution"
  bottom: "Extend"
  top: "ORConv1"
  param {
    lr_mult: 1
    decay_mult: 2
  }
  convolution_param {
    num_output: 80
    pad: 0
    kernel_size: 3
    stride: 1
    weight_filler {
      type: "msra"
    }
    bias_filler {
      type: "constant"
      value: 0
    }
  }
  orn_param {
    orientations: 8
  }
}
layer {
  name: "ReLU1"
  type: "ReLU"
  bottom: "ORConv1"
  top: "ORConv1"
}
layer {
  name: "Pool1"
  type: "Pooling"
  bottom: "ORConv1"
  top: "Pool1"
  pooling_param {
    pool: MAX
    kernel_size: 2
    stride: 2
  }
}
layer {
  name: "ORConv2"
  type: "ORNConvolution"
  bottom: "Pool1"
  top: "ORConv2"
  param {
    lr_mult: 1
    decay_mult: 2
  }
  convolution_param {
    num_output: 160
    pad: 0
    kernel_size: 3
    stride: 1
    weight_filler {
      type: "msra"
    }
    bias_filler {
      type: "constant"
      value: 0
    }
  }
  orn_param {
    orientations: 8
  }
}
layer {
  name: "ReLU2"
  type: "ReLU"
  bottom: "ORConv2"
  top: "ORConv2"
}
layer {
  name: "Pool2"
  type: "Pooling"
  bottom: "ORConv2"
  top: "Pool2"
  pooling_param {
    pool: MAX
    kernel_size: 2
    stride: 2
  }
}
layer {
  name: "ORConv3"
  type: "ORNConvolution"
  bottom: "Pool2"
  top: "ORConv3"
  param {
    lr_mult: 1
    decay_mult: 2
  }
  convolution_param {
    num_output: 320
    pad: 1
    kernel_size: 3
    stride: 1
    weight_filler {
      type: "msra"
    }
    bias_filler {
      type: "constant"
      value: 0
    }
  }
  orn_param {
    orientations: 8
  }
}
layer {
  name: "ReLU3"
  type: "ReLU"
  bottom: "ORConv3"
  top: "ORConv3"
}
layer {
  name: "Pool3"
  type: "Pooling"
  bottom: "ORConv3"
  top: "Pool3"
  pooling_param {
    pool: MAX
    kernel_size: 3
    stride: 2
  }
}
layer {
  name: "ORConv4"
  type: "ORNConvolution"
  bottom: "Pool3"
  top: "ORConv4"
  param {
    lr_mult: 1
    decay_mult: 2
  }
  convolution_param {
    num_output: 640
    pad: 0
    kernel_size: 3
    stride: 1
    weight_filler {
      type: "msra"
    }
    bias_filler {
      type: "constant"
      value: 0
    }
  }
  orn_param {
    orientations: 8
  }
}
layer {
  name: "ReLU4"
  type: "ReLU"
  bottom: "ORConv4"
  top: "ORConv4"
}
layer {
  name: "ORPool"
  type: "ORPooling"
  bottom: "ORConv4"
  top: "ORPool"
  orn_param {
    orientations: 8
  }
}
layer {
  name: "FC1"
  type: "InnerProduct"
  bottom: "ORPool"
  top: "FC1"
  param {
    lr_mult: 1
    decay_mult: 1
  }
  param {
    lr_mult: 2
    decay_mult: 0
  }
  inner_product_param {
    num_output: 1024
    weight_filler {
      type: "gaussian"
      std: 0.01
    }
    bias_filler {
      type: "constant"
      value: 0
    }
  }
}
layer {
  name: "ReLU5"
  type: "ReLU"
  bottom: "FC1"
  top: "FC1"
}
layer {
  name: "Dropout"
  type: "Dropout"
  bottom: "FC1"
  top: "FC1"
  dropout_param {
    dropout_ratio: 0.5
  }
}
layer {
  name: "FC2"
  type: "InnerProduct"
  bottom: "FC1"
  top: "FC2"
  param {
    lr_mult: 1
    decay_mult: 1
  }
  param {
    lr_mult: 2
    decay_mult: 0
  }
  inner_product_param {
    num_output: 10
    weight_filler {
      type: "gaussian"
      std: 0.01
    }
    bias_filler {
      type: "constant"
      value: 0
    }
  }
}
layer {
  name: "loss"
  type: "SoftmaxWithLoss"
  bottom: "FC2"
  bottom: "label"
  top: "loss"
}
I0630 20:12:53.472985  2238 layer_factory.hpp:77] Creating layer mnist
I0630 20:12:53.473937  2238 net.cpp:100] Creating Layer mnist
I0630 20:12:53.473966  2238 net.cpp:408] mnist -> data
I0630 20:12:53.474007  2238 net.cpp:408] mnist -> label
I0630 20:12:53.476269  2276 db_lmdb.cpp:35] Opened lmdb dataset/mnist_rot_train_lmdb
I0630 20:12:53.507412  2238 data_layer.cpp:41] output data size: 128,1,32,32
I0630 20:12:53.510681  2238 net.cpp:150] Setting up mnist
I0630 20:12:53.510722  2238 net.cpp:157] Top shape: 128 1 32 32 (131072)
I0630 20:12:53.510736  2238 net.cpp:157] Top shape: 128 (128)
I0630 20:12:53.510746  2238 net.cpp:165] Memory required for data: 524800
I0630 20:12:53.510762  2238 layer_factory.hpp:77] Creating layer Extend
I0630 20:12:53.510789  2238 net.cpp:100] Creating Layer Extend
I0630 20:12:53.510804  2238 net.cpp:434] Extend <- data
I0630 20:12:53.510829  2238 net.cpp:408] Extend -> Extend
I0630 20:12:53.510885  2238 net.cpp:150] Setting up Extend
I0630 20:12:53.510900  2238 net.cpp:157] Top shape: 128 8 32 32 (1048576)
I0630 20:12:53.510910  2238 net.cpp:165] Memory required for data: 4719104
I0630 20:12:53.510917  2238 layer_factory.hpp:77] Creating layer ORConv1
I0630 20:12:53.510941  2238 net.cpp:100] Creating Layer ORConv1
I0630 20:12:53.510951  2238 net.cpp:434] ORConv1 <- Extend
I0630 20:12:53.510962  2238 net.cpp:408] ORConv1 -> ORConv1
I0630 20:12:53.514562  2238 net.cpp:150] Setting up ORConv1
I0630 20:12:53.514592  2238 net.cpp:157] Top shape: 128 80 30 30 (9216000)
I0630 20:12:53.514600  2238 net.cpp:165] Memory required for data: 41583104
I0630 20:12:53.514636  2238 layer_factory.hpp:77] Creating layer ReLU1
I0630 20:12:53.514655  2238 net.cpp:100] Creating Layer ReLU1
I0630 20:12:53.514667  2238 net.cpp:434] ReLU1 <- ORConv1
I0630 20:12:53.514677  2238 net.cpp:395] ReLU1 -> ORConv1 (in-place)
I0630 20:12:54.728245  2238 net.cpp:150] Setting up ReLU1
I0630 20:12:54.728299  2238 net.cpp:157] Top shape: 128 80 30 30 (9216000)
I0630 20:12:54.728307  2238 net.cpp:165] Memory required for data: 78447104
I0630 20:12:54.728318  2238 layer_factory.hpp:77] Creating layer Pool1
I0630 20:12:54.728348  2238 net.cpp:100] Creating Layer Pool1
I0630 20:12:54.728356  2238 net.cpp:434] Pool1 <- ORConv1
I0630 20:12:54.728368  2238 net.cpp:408] Pool1 -> Pool1
I0630 20:12:54.728466  2238 net.cpp:150] Setting up Pool1
I0630 20:12:54.728482  2238 net.cpp:157] Top shape: 128 80 15 15 (2304000)
I0630 20:12:54.728487  2238 net.cpp:165] Memory required for data: 87663104
I0630 20:12:54.728494  2238 layer_factory.hpp:77] Creating layer ORConv2
I0630 20:12:54.728513  2238 net.cpp:100] Creating Layer ORConv2
I0630 20:12:54.728521  2238 net.cpp:434] ORConv2 <- Pool1
I0630 20:12:54.728530  2238 net.cpp:408] ORConv2 -> ORConv2
I0630 20:12:54.732673  2238 net.cpp:150] Setting up ORConv2
I0630 20:12:54.732692  2238 net.cpp:157] Top shape: 128 160 13 13 (3461120)
I0630 20:12:54.732698  2238 net.cpp:165] Memory required for data: 101507584
I0630 20:12:54.732714  2238 layer_factory.hpp:77] Creating layer ReLU2
I0630 20:12:54.732723  2238 net.cpp:100] Creating Layer ReLU2
I0630 20:12:54.732729  2238 net.cpp:434] ReLU2 <- ORConv2
I0630 20:12:54.732738  2238 net.cpp:395] ReLU2 -> ORConv2 (in-place)
I0630 20:12:54.732960  2238 net.cpp:150] Setting up ReLU2
I0630 20:12:54.732977  2238 net.cpp:157] Top shape: 128 160 13 13 (3461120)
I0630 20:12:54.732982  2238 net.cpp:165] Memory required for data: 115352064
I0630 20:12:54.732988  2238 layer_factory.hpp:77] Creating layer Pool2
I0630 20:12:54.733000  2238 net.cpp:100] Creating Layer Pool2
I0630 20:12:54.733027  2238 net.cpp:434] Pool2 <- ORConv2
I0630 20:12:54.733036  2238 net.cpp:408] Pool2 -> Pool2
I0630 20:12:54.733093  2238 net.cpp:150] Setting up Pool2
I0630 20:12:54.733105  2238 net.cpp:157] Top shape: 128 160 7 7 (1003520)
I0630 20:12:54.733111  2238 net.cpp:165] Memory required for data: 119366144
I0630 20:12:54.733116  2238 layer_factory.hpp:77] Creating layer ORConv3
I0630 20:12:54.733129  2238 net.cpp:100] Creating Layer ORConv3
I0630 20:12:54.733139  2238 net.cpp:434] ORConv3 <- Pool2
I0630 20:12:54.733147  2238 net.cpp:408] ORConv3 -> ORConv3
I0630 20:12:54.749759  2238 net.cpp:150] Setting up ORConv3
I0630 20:12:54.749784  2238 net.cpp:157] Top shape: 128 320 7 7 (2007040)
I0630 20:12:54.749790  2238 net.cpp:165] Memory required for data: 127394304
I0630 20:12:54.749804  2238 layer_factory.hpp:77] Creating layer ReLU3
I0630 20:12:54.749812  2238 net.cpp:100] Creating Layer ReLU3
I0630 20:12:54.749819  2238 net.cpp:434] ReLU3 <- ORConv3
I0630 20:12:54.749826  2238 net.cpp:395] ReLU3 -> ORConv3 (in-place)
I0630 20:12:54.750051  2238 net.cpp:150] Setting up ReLU3
I0630 20:12:54.750067  2238 net.cpp:157] Top shape: 128 320 7 7 (2007040)
I0630 20:12:54.750072  2238 net.cpp:165] Memory required for data: 135422464
I0630 20:12:54.750078  2238 layer_factory.hpp:77] Creating layer Pool3
I0630 20:12:54.750088  2238 net.cpp:100] Creating Layer Pool3
I0630 20:12:54.750097  2238 net.cpp:434] Pool3 <- ORConv3
I0630 20:12:54.750105  2238 net.cpp:408] Pool3 -> Pool3
I0630 20:12:54.750161  2238 net.cpp:150] Setting up Pool3
I0630 20:12:54.750174  2238 net.cpp:157] Top shape: 128 320 3 3 (368640)
I0630 20:12:54.750180  2238 net.cpp:165] Memory required for data: 136897024
I0630 20:12:54.750185  2238 layer_factory.hpp:77] Creating layer ORConv4
I0630 20:12:54.750193  2238 net.cpp:100] Creating Layer ORConv4
I0630 20:12:54.750201  2238 net.cpp:434] ORConv4 <- Pool3
I0630 20:12:54.750210  2238 net.cpp:408] ORConv4 -> ORConv4
I0630 20:12:54.807107  2238 net.cpp:150] Setting up ORConv4
I0630 20:12:54.807142  2238 net.cpp:157] Top shape: 128 640 1 1 (81920)
I0630 20:12:54.807148  2238 net.cpp:165] Memory required for data: 137224704
I0630 20:12:54.807164  2238 layer_factory.hpp:77] Creating layer ReLU4
I0630 20:12:54.807175  2238 net.cpp:100] Creating Layer ReLU4
I0630 20:12:54.807181  2238 net.cpp:434] ReLU4 <- ORConv4
I0630 20:12:54.807190  2238 net.cpp:395] ReLU4 -> ORConv4 (in-place)
I0630 20:12:54.810936  2238 net.cpp:150] Setting up ReLU4
I0630 20:12:54.810959  2238 net.cpp:157] Top shape: 128 640 1 1 (81920)
I0630 20:12:54.810966  2238 net.cpp:165] Memory required for data: 137552384
I0630 20:12:54.810971  2238 layer_factory.hpp:77] Creating layer ORPool
I0630 20:12:54.810983  2238 net.cpp:100] Creating Layer ORPool
I0630 20:12:54.810989  2238 net.cpp:434] ORPool <- ORConv4
I0630 20:12:54.811002  2238 net.cpp:408] ORPool -> ORPool
I0630 20:12:54.811064  2238 net.cpp:150] Setting up ORPool
I0630 20:12:54.811074  2238 net.cpp:157] Top shape: 128 80 1 1 (10240)
I0630 20:12:54.811079  2238 net.cpp:165] Memory required for data: 137593344
I0630 20:12:54.811084  2238 layer_factory.hpp:77] Creating layer FC1
I0630 20:12:54.811097  2238 net.cpp:100] Creating Layer FC1
I0630 20:12:54.811105  2238 net.cpp:434] FC1 <- ORPool
I0630 20:12:54.811113  2238 net.cpp:408] FC1 -> FC1
I0630 20:12:54.814556  2238 net.cpp:150] Setting up FC1
I0630 20:12:54.814577  2238 net.cpp:157] Top shape: 128 1024 (131072)
I0630 20:12:54.814584  2238 net.cpp:165] Memory required for data: 138117632
I0630 20:12:54.814596  2238 layer_factory.hpp:77] Creating layer ReLU5
I0630 20:12:54.814607  2238 net.cpp:100] Creating Layer ReLU5
I0630 20:12:54.814616  2238 net.cpp:434] ReLU5 <- FC1
I0630 20:12:54.814625  2238 net.cpp:395] ReLU5 -> FC1 (in-place)
I0630 20:12:54.814829  2238 net.cpp:150] Setting up ReLU5
I0630 20:12:54.814844  2238 net.cpp:157] Top shape: 128 1024 (131072)
I0630 20:12:54.814851  2238 net.cpp:165] Memory required for data: 138641920
I0630 20:12:54.814858  2238 layer_factory.hpp:77] Creating layer Dropout
I0630 20:12:54.814895  2238 net.cpp:100] Creating Layer Dropout
I0630 20:12:54.814903  2238 net.cpp:434] Dropout <- FC1
I0630 20:12:54.814911  2238 net.cpp:395] Dropout -> FC1 (in-place)
I0630 20:12:54.814942  2238 net.cpp:150] Setting up Dropout
I0630 20:12:54.814954  2238 net.cpp:157] Top shape: 128 1024 (131072)
I0630 20:12:54.814960  2238 net.cpp:165] Memory required for data: 139166208
I0630 20:12:54.814965  2238 layer_factory.hpp:77] Creating layer FC2
I0630 20:12:54.814975  2238 net.cpp:100] Creating Layer FC2
I0630 20:12:54.814981  2238 net.cpp:434] FC2 <- FC1
I0630 20:12:54.814990  2238 net.cpp:408] FC2 -> FC2
I0630 20:12:54.815392  2238 net.cpp:150] Setting up FC2
I0630 20:12:54.815405  2238 net.cpp:157] Top shape: 128 10 (1280)
I0630 20:12:54.815410  2238 net.cpp:165] Memory required for data: 139171328
I0630 20:12:54.815419  2238 layer_factory.hpp:77] Creating layer loss
I0630 20:12:54.815440  2238 net.cpp:100] Creating Layer loss
I0630 20:12:54.815448  2238 net.cpp:434] loss <- FC2
I0630 20:12:54.815454  2238 net.cpp:434] loss <- label
I0630 20:12:54.815462  2238 net.cpp:408] loss -> loss
I0630 20:12:54.815474  2238 layer_factory.hpp:77] Creating layer loss
…
I0630 20:12:54.817767  2238 solver.cpp:196] Creating test net (#0) specified by net file: orn.prototxt
I0630 20:12:54.817816  2238 net.cpp:322] The NetState phase (1) differed from the phase (0) specified by a rule in layer mnist
I0630 20:12:54.818009  2238 net.cpp:58] Initializing net from parameters: 
name: "ORN"
state {
  phase: TEST
}
layer {
  name: "mnist"
  type: "Data"
  top: "data"
  top: "label"
  include {
    phase: TEST
  }
  transform_param {
    scale: 0.00390625
  }
  data_param {
    source: "dataset/mnist_rot_test_lmdb"
    batch_size: 1000
    backend: LMDB
  }
}
layer {
  name: "Extend"
  type: "Extend"
  bottom: "data"
  top: "Extend"
  orn_param {
    orientations: 8
  }
}
layer {
  name: "ORConv1"
  type: "ORNConvolution"
  bottom: "Extend"
  top: "ORConv1"
  param {
    lr_mult: 1
    decay_mult: 2
  }
  convolution_param {
    num_output: 80
    pad: 0
    kernel_size: 3
    stride: 1
    weight_filler {
      type: "msra"
    }
    bias_filler {
      type: "constant"
      value: 0
    }
  }
  orn_param {
    orientations: 8
  }
}
layer {
  name: "ReLU1"
  type: "ReLU"
  bottom: "ORConv1"
  top: "ORConv1"
}
layer {
  name: "Pool1"
  type: "Pooling"
  bottom: "ORConv1"
  top: "Pool1"
  pooling_param {
    pool: MAX
    kernel_size: 2
    stride: 2
  }
}
layer {
  name: "ORConv2"
  type: "ORNConvolution"
  bottom: "Pool1"
  top: "ORConv2"
  param {
    lr_mult: 1
    decay_mult: 2
  }
  convolution_param {
    num_output: 160
    pad: 0
    kernel_size: 3
    stride: 1
    weight_filler {
      type: "msra"
    }
    bias_filler {
      type: "constant"
      value: 0
    }
  }
  orn_param {
    orientations: 8
  }
}
layer {
  name: "ReLU2"
  type: "ReLU"
  bottom: "ORConv2"
  top: "ORConv2"
}
layer {
  name: "Pool2"
  type: "Pooling"
  bottom: "ORConv2"
  top: "Pool2"
  pooling_param {
    pool: MAX
    kernel_size: 2
    stride: 2
  }
}
layer {
  name: "ORConv3"
  type: "ORNConvolution"
  bottom: "Pool2"
  top: "ORConv3"
  param {
    lr_mult: 1
    decay_mult: 2
  }
  convolution_param {
    num_output: 320
    pad: 1
    kernel_size: 3
    stride: 1
    weight_filler {
      type: "msra"
    }
    bias_filler {
      type: "constant"
      value: 0
    }
  }
  orn_param {
    orientations: 8
  }
}
layer {
  name: "ReLU3"
  type: "ReLU"
  bottom: "ORConv3"
  top: "ORConv3"
}
layer {
  name: "Pool3"
  type: "Pooling"
  bottom: "ORConv3"
  top: "Pool3"
  pooling_param {
    pool: MAX
    kernel_size: 3
    stride: 2
  }
}
layer {
  name: "ORConv4"
  type: "ORNConvolution"
  bottom: "Pool3"
  top: "ORConv4"
  param {
    lr_mult: 1
    decay_mult: 2
  }
  convolution_param {
    num_output: 640
    pad: 0
    kernel_size: 3
    stride: 1
    weight_filler {
      type: "msra"
    }
    bias_filler {
      type: "constant"
      value: 0
    }
  }
  orn_param {
    orientations: 8
  }
}
layer {
  name: "ReLU4"
  type: "ReLU"
  bottom: "ORConv4"
  top: "ORConv4"
}
layer {
  name: "ORPool"
  type: "ORPooling"
  bottom: "ORConv4"
  top: "ORPool"
  orn_param {
    orientations: 8
  }
}
layer {
  name: "FC1"
  type: "InnerProduct"
  bottom: "ORPool"
  top: "FC1"
  param {
    lr_mult: 1
    decay_mult: 1
  }
  param {
    lr_mult: 2
    decay_mult: 0
  }
  inner_product_param {
    num_output: 1024
    weight_filler {
      type: "gaussian"
      std: 0.01
    }
    bias_filler {
      type: "constant"
      value: 0
    }
  }
}
layer {
  name: "ReLU5"
  type: "ReLU"
  bottom: "FC1"
  top: "FC1"
}
layer {
  name: "Dropout"
  type: "Dropout"
  bottom: "FC1"
  top: "FC1"
  dropout_param {
    dropout_ratio: 0.5
  }
}
layer {
  name: "FC2"
  type: "InnerProduct"
  bottom: "FC1"
  top: "FC2"
  param {
    lr_mult: 1
    decay_mult: 1
  }
  param {
    lr_mult: 2
    decay_mult: 0
  }
  inner_product_param {
    num_output: 10
    weight_filler {
      type: "gaussian"
      std: 0.01
    }
    bias_filler {
      type: "constant"
      value: 0
    }
  }
}
layer {
  name: "accuracy"
  type: "Accuracy"
  bottom: "FC2"
  bottom: "label"
  top: "accuracy"
  include {
    phase: TEST
  }
}
layer {
  name: "loss"
  type: "SoftmaxWithLoss"
  bottom: "FC2"
  bottom: "label"
  top: "loss"
}
I0630 20:12:54.818133  2238 layer_factory.hpp:77] Creating layer mnist
I0630 20:12:54.818814  2238 net.cpp:100] Creating Layer mnist
I0630 20:12:54.818828  2238 net.cpp:408] mnist -> data
I0630 20:12:54.818840  2238 net.cpp:408] mnist -> label
I0630 20:12:54.821379  2278 db_lmdb.cpp:35] Opened lmdb dataset/mnist_rot_test_lmdb
I0630 20:12:54.822412  2238 data_layer.cpp:41] output data size: 1000,1,32,32
I0630 20:12:54.833607  2238 net.cpp:150] Setting up mnist
I0630 20:12:54.833634  2238 net.cpp:157] Top shape: 1000 1 32 32 (1024000)
I0630 20:12:54.833642  2238 net.cpp:157] Top shape: 1000 (1000)
I0630 20:12:54.833645  2238 net.cpp:165] Memory required for data: 4100000
I0630 20:12:54.833652  2238 layer_factory.hpp:77] Creating layer label_mnist_1_split
I0630 20:12:54.833663  2238 net.cpp:100] Creating Layer label_mnist_1_split
I0630 20:12:54.833673  2238 net.cpp:434] label_mnist_1_split <- label
I0630 20:12:54.833685  2238 net.cpp:408] label_mnist_1_split -> label_mnist_1_split_0
I0630 20:12:54.833714  2238 net.cpp:408] label_mnist_1_split -> label_mnist_1_split_1
I0630 20:12:54.833827  2238 net.cpp:150] Setting up label_mnist_1_split
I0630 20:12:54.833838  2238 net.cpp:157] Top shape: 1000 (1000)
I0630 20:12:54.833845  2238 net.cpp:157] Top shape: 1000 (1000)
I0630 20:12:54.833849  2238 net.cpp:165] Memory required for data: 4108000
I0630 20:12:54.833856  2238 layer_factory.hpp:77] Creating layer Extend
I0630 20:12:54.833868  2238 net.cpp:100] Creating Layer Extend
I0630 20:12:54.833874  2238 net.cpp:434] Extend <- data
I0630 20:12:54.833880  2238 net.cpp:408] Extend -> Extend
I0630 20:12:54.833945  2238 net.cpp:150] Setting up Extend
I0630 20:12:54.833956  2238 net.cpp:157] Top shape: 1000 8 32 32 (8192000)
I0630 20:12:54.833961  2238 net.cpp:165] Memory required for data: 36876000
I0630 20:12:54.833966  2238 layer_factory.hpp:77] Creating layer ORConv1
I0630 20:12:54.833981  2238 net.cpp:100] Creating Layer ORConv1
I0630 20:12:54.833987  2238 net.cpp:434] ORConv1 <- Extend
I0630 20:12:54.833997  2238 net.cpp:408] ORConv1 -> ORConv1
I0630 20:12:54.834508  2238 net.cpp:150] Setting up ORConv1
I0630 20:12:54.834524  2238 net.cpp:157] Top shape: 1000 80 30 30 (72000000)
I0630 20:12:54.834528  2238 net.cpp:165] Memory required for data: 324876000
I0630 20:12:54.834542  2238 layer_factory.hpp:77] Creating layer ReLU1
I0630 20:12:54.834556  2238 net.cpp:100] Creating Layer ReLU1
I0630 20:12:54.834564  2238 net.cpp:434] ReLU1 <- ORConv1
I0630 20:12:54.834594  2238 net.cpp:395] ReLU1 -> ORConv1 (in-place)
I0630 20:12:54.834877  2238 net.cpp:150] Setting up ReLU1
I0630 20:12:54.834892  2238 net.cpp:157] Top shape: 1000 80 30 30 (72000000)
I0630 20:12:54.834899  2238 net.cpp:165] Memory required for data: 612876000
I0630 20:12:54.834905  2238 layer_factory.hpp:77] Creating layer Pool1
I0630 20:12:54.834918  2238 net.cpp:100] Creating Layer Pool1
I0630 20:12:54.834925  2238 net.cpp:434] Pool1 <- ORConv1
I0630 20:12:54.834933  2238 net.cpp:408] Pool1 -> Pool1
I0630 20:12:54.834995  2238 net.cpp:150] Setting up Pool1
I0630 20:12:54.835006  2238 net.cpp:157] Top shape: 1000 80 15 15 (18000000)
I0630 20:12:54.835012  2238 net.cpp:165] Memory required for data: 684876000
I0630 20:12:54.835016  2238 layer_factory.hpp:77] Creating layer ORConv2
I0630 20:12:54.835029  2238 net.cpp:100] Creating Layer ORConv2
I0630 20:12:54.835036  2238 net.cpp:434] ORConv2 <- Pool1
I0630 20:12:54.835043  2238 net.cpp:408] ORConv2 -> ORConv2
I0630 20:12:54.838564  2238 net.cpp:150] Setting up ORConv2
I0630 20:12:54.838580  2238 net.cpp:157] Top shape: 1000 160 13 13 (27040000)
I0630 20:12:54.838588  2238 net.cpp:165] Memory required for data: 793036000
I0630 20:12:54.838601  2238 layer_factory.hpp:77] Creating layer ReLU2
I0630 20:12:54.838613  2238 net.cpp:100] Creating Layer ReLU2
I0630 20:12:54.838620  2238 net.cpp:434] ReLU2 <- ORConv2
I0630 20:12:54.838629  2238 net.cpp:395] ReLU2 -> ORConv2 (in-place)
I0630 20:12:54.838857  2238 net.cpp:150] Setting up ReLU2
I0630 20:12:54.838876  2238 net.cpp:157] Top shape: 1000 160 13 13 (27040000)
I0630 20:12:54.838883  2238 net.cpp:165] Memory required for data: 901196000
I0630 20:12:54.838898  2238 layer_factory.hpp:77] Creating layer Pool2
I0630 20:12:54.838915  2238 net.cpp:100] Creating Layer Pool2
I0630 20:12:54.838922  2238 net.cpp:434] Pool2 <- ORConv2
I0630 20:12:54.838940  2238 net.cpp:408] Pool2 -> Pool2
I0630 20:12:54.838995  2238 net.cpp:150] Setting up Pool2
I0630 20:12:54.839006  2238 net.cpp:157] Top shape: 1000 160 7 7 (7840000)
I0630 20:12:54.839012  2238 net.cpp:165] Memory required for data: 932556000
I0630 20:12:54.839026  2238 layer_factory.hpp:77] Creating layer ORConv3
I0630 20:12:54.839046  2238 net.cpp:100] Creating Layer ORConv3
I0630 20:12:54.839054  2238 net.cpp:434] ORConv3 <- Pool2
I0630 20:12:54.839062  2238 net.cpp:408] ORConv3 -> ORConv3
I0630 20:12:54.853305  2238 net.cpp:150] Setting up ORConv3
I0630 20:12:54.853333  2238 net.cpp:157] Top shape: 1000 320 7 7 (15680000)
I0630 20:12:54.853341  2238 net.cpp:165] Memory required for data: 995276000
I0630 20:12:54.853386  2238 layer_factory.hpp:77] Creating layer ReLU3
I0630 20:12:54.853405  2238 net.cpp:100] Creating Layer ReLU3
I0630 20:12:54.853412  2238 net.cpp:434] ReLU3 <- ORConv3
I0630 20:12:54.853435  2238 net.cpp:395] ReLU3 -> ORConv3 (in-place)
I0630 20:12:54.853682  2238 net.cpp:150] Setting up ReLU3
I0630 20:12:54.853696  2238 net.cpp:157] Top shape: 1000 320 7 7 (15680000)
I0630 20:12:54.853704  2238 net.cpp:165] Memory required for data: 1057996000
I0630 20:12:54.853709  2238 layer_factory.hpp:77] Creating layer Pool3
I0630 20:12:54.853720  2238 net.cpp:100] Creating Layer Pool3
I0630 20:12:54.853727  2238 net.cpp:434] Pool3 <- ORConv3
I0630 20:12:54.853746  2238 net.cpp:408] Pool3 -> Pool3
I0630 20:12:54.853807  2238 net.cpp:150] Setting up Pool3
I0630 20:12:54.853823  2238 net.cpp:157] Top shape: 1000 320 3 3 (2880000)
I0630 20:12:54.853829  2238 net.cpp:165] Memory required for data: 1069516000
I0630 20:12:54.853834  2238 layer_factory.hpp:77] Creating layer ORConv4
I0630 20:12:54.853848  2238 net.cpp:100] Creating Layer ORConv4
I0630 20:12:54.853857  2238 net.cpp:434] ORConv4 <- Pool3
I0630 20:12:54.853873  2238 net.cpp:408] ORConv4 -> ORConv4
I0630 20:12:54.908246  2238 net.cpp:150] Setting up ORConv4
I0630 20:12:54.908278  2238 net.cpp:157] Top shape: 1000 640 1 1 (640000)
I0630 20:12:54.908284  2238 net.cpp:165] Memory required for data: 1072076000
I0630 20:12:54.908295  2238 layer_factory.hpp:77] Creating layer ReLU4
I0630 20:12:54.908308  2238 net.cpp:100] Creating Layer ReLU4
I0630 20:12:54.908314  2238 net.cpp:434] ReLU4 <- ORConv4
I0630 20:12:54.908321  2238 net.cpp:395] ReLU4 -> ORConv4 (in-place)
I0630 20:12:54.908574  2238 net.cpp:150] Setting up ReLU4
I0630 20:12:54.908588  2238 net.cpp:157] Top shape: 1000 640 1 1 (640000)
I0630 20:12:54.908593  2238 net.cpp:165] Memory required for data: 1074636000
I0630 20:12:54.908598  2238 layer_factory.hpp:77] Creating layer ORPool
I0630 20:12:54.908605  2238 net.cpp:100] Creating Layer ORPool
I0630 20:12:54.908610  2238 net.cpp:434] ORPool <- ORConv4
I0630 20:12:54.908618  2238 net.cpp:408] ORPool -> ORPool
I0630 20:12:54.908668  2238 net.cpp:150] Setting up ORPool
I0630 20:12:54.908679  2238 net.cpp:157] Top shape: 1000 80 1 1 (80000)
I0630 20:12:54.908684  2238 net.cpp:165] Memory required for data: 1074956000
I0630 20:12:54.908689  2238 layer_factory.hpp:77] Creating layer FC1
I0630 20:12:54.908699  2238 net.cpp:100] Creating Layer FC1
I0630 20:12:54.908707  2238 net.cpp:434] FC1 <- ORPool
I0630 20:12:54.908715  2238 net.cpp:408] FC1 -> FC1
I0630 20:12:54.911116  2238 net.cpp:150] Setting up FC1
I0630 20:12:54.911129  2238 net.cpp:157] Top shape: 1000 1024 (1024000)
I0630 20:12:54.911134  2238 net.cpp:165] Memory required for data: 1079052000
I0630 20:12:54.911146  2238 layer_factory.hpp:77] Creating layer ReLU5
I0630 20:12:54.911159  2238 net.cpp:100] Creating Layer ReLU5
I0630 20:12:54.911164  2238 net.cpp:434] ReLU5 <- FC1
I0630 20:12:54.911170  2238 net.cpp:395] ReLU5 -> FC1 (in-place)
I0630 20:12:54.912803  2238 net.cpp:150] Setting up ReLU5
I0630 20:12:54.912825  2238 net.cpp:157] Top shape: 1000 1024 (1024000)
I0630 20:12:54.912830  2238 net.cpp:165] Memory required for data: 1083148000
I0630 20:12:54.912835  2238 layer_factory.hpp:77] Creating layer Dropout
I0630 20:12:54.912843  2238 net.cpp:100] Creating Layer Dropout
I0630 20:12:54.912848  2238 net.cpp:434] Dropout <- FC1
I0630 20:12:54.912854  2238 net.cpp:395] Dropout -> FC1 (in-place)
I0630 20:12:54.912890  2238 net.cpp:150] Setting up Dropout
I0630 20:12:54.912901  2238 net.cpp:157] Top shape: 1000 1024 (1024000)
I0630 20:12:54.912906  2238 net.cpp:165] Memory required for data: 1087244000
I0630 20:12:54.912910  2238 layer_factory.hpp:77] Creating layer FC2
I0630 20:12:54.912919  2238 net.cpp:100] Creating Layer FC2
I0630 20:12:54.912925  2238 net.cpp:434] FC2 <- FC1
I0630 20:12:54.912930  2238 net.cpp:408] FC2 -> FC2
I0630 20:12:54.913348  2238 net.cpp:150] Setting up FC2
I0630 20:12:54.913360  2238 net.cpp:157] Top shape: 1000 10 (10000)
I0630 20:12:54.913364  2238 net.cpp:165] Memory required for data: 1087284000
I0630 20:12:54.913388  2238 layer_factory.hpp:77] Creating layer FC2_FC2_0_split
I0630 20:12:54.913396  2238 net.cpp:100] Creating Layer FC2_FC2_0_split
I0630 20:12:54.913400  2238 net.cpp:434] FC2_FC2_0_split <- FC2
I0630 20:12:54.913409  2238 net.cpp:408] FC2_FC2_0_split -> FC2_FC2_0_split_0
I0630 20:12:54.913416  2238 net.cpp:408] FC2_FC2_0_split -> FC2_FC2_0_split_1
I0630 20:12:54.913465  2238 net.cpp:150] Setting up FC2_FC2_0_split
I0630 20:12:54.913476  2238 net.cpp:157] Top shape: 1000 10 (10000)
I0630 20:12:54.913482  2238 net.cpp:157] Top shape: 1000 10 (10000)
I0630 20:12:54.913486  2238 net.cpp:165] Memory required for data: 1087364000
I0630 20:12:54.913491  2238 layer_factory.hpp:77] Creating layer accuracy
I0630 20:12:54.913498  2238 net.cpp:100] Creating Layer accuracy
I0630 20:12:54.913509  2238 net.cpp:434] accuracy <- FC2_FC2_0_split_0
I0630 20:12:54.913516  2238 net.cpp:434] accuracy <- label_mnist_1_split_0
I0630 20:12:54.913522  2238 net.cpp:408] accuracy -> accuracy
…
